helper_&_other_scripts/MSRAction3D.pt (torch, 392703 bytes, 75 tensors)

module.t_patch_modules.0.t_patch_net.0.weight f4 [16, 18]
-0.19192488 -0.12823145 -0.14441809 -0.2167076 0.19357345 -0.07705869 -0.13575612 0.0009547947
-0.17367958 -0.08476299 -0.06650452 -0.18495978 -0.071367905 -0.10639584 -0.20713218 -0.14263637
-0.041815996 0.082971916 0.08799336 0.14354745 0.10520905 0.011431795 -0.035129894 0.012250787
0.076524206 -0.15750478 0.20223083 -0.14084019 0.13348047 0.10161216 0.1919898 -0.0064730803
-0.17594805 -0.036054432 -0.16546291 0.10187152 -0.050881512 0.09298326 -0.10315067 0.034812905
0.045582294 0.091387056 0.0074618477 0.0145516265 0.20186293 -0.12671392 0.14381343 0.111557156
0.1271289 -0.07781868 -0.061822172 -0.016504135 -0.15545993 -0.034519143 -0.2027337 0.23125422
0.11863764 0.095998205 -0.021845097 0.11284678 -0.04804822 0.019148482 -0.027190296 -0.010766195
-0.14688131 -0.1480284 -0.189073 0.056666046 -0.22846317 -0.21374272 -0.1322898 0.19465704
-0.03208225 -0.08816949 -0.17049183 0.09619455 0.0682736 0.012075844 -0.15538853 0.20435348
-0.11418098 -0.054122377 0.0012732615 0.23116575 -0.020021038 0.07717715 0.04862272 -0.19650714
0.15194187 0.12996222 0.06765617 0.06973861 0.12835146 0.029387102 0.050461654 0.09005826
-0.2117609 -0.16643953 -0.100299254 -0.036986243 0.08431915 0.0886059 -0.19409417 -0.041817226
-0.033352323 -0.13623472 -0.040038735 -0.072436415 -0.02192827 0.13402425 0.046199854 -0.15403908
0.18423817 0.07022341 -0.17562401 -0.1688094 0.10451229 0.002764331 -0.056874264 0.07873942
0.027030097 0.012698232 -0.17147897 0.07744058 0.02148958 0.14893386 0.054921832 0.046861783
0.12053663 -0.083968274 -0.19397135 0.008631878 0.0976836 0.081230685 -0.023246022 -0.122992955
-0.08082238 0.1514845 0.017323663 0.20803446 -0.15671484 -0.2330566 -0.13972856 0.0358424
0.08898695 0.22405855 -0.056960568 0.06347372 -0.09395426 -0.15994108 0.04387577 -0.07134944
0.11085152 -0.1805535 -0.017690634 -0.115182675 0.022306219 -0.05394569 -0.1281546 0.1091053
0.11951719 -0.07880118 0.075128935 -0.14586802 0.025723783 0.08018566 -0.1839646 0.12755254
0.014718701 0.00036952863 0.20336111 -0.21527624 0.13427024 -0.10953688 -0.038998228 -0.00689686
0.23301226 0.04229289 -0.14275622 0.14832 -0.2002856 0.1982686 0.119852476 0.074434765
0.22933812 0.037045922 0.04325476 0.23449351 -0.05003213 -0.021981172 0.23587982 -0.088780314
-0.13337053 -0.06011819 -0.030223163 0.18293448 -0.21418428 -0.028172087 0.084169894 0.13548264
0.17360848 0.117653914 0.08423242 -0.090231724 0.18557742 -0.1497662 0.17987272 -0.109023765
0.17062306 0.04635197 -0.029471116 -0.21202941 0.061979145 -0.0872888 -0.1022546 -0.033294365
0.1335117 -0.026758919 0.16584168 -0.051783442 0.15023638 -0.18206403 -0.11186291 -0.054359507
0.18357308 -0.22877373 -0.100210816 0.21292163 -0.04600465 -0.083473705 0.073889524 -0.15688741
0.13800931 -0.052931897 0.1038526 0.123253606 -0.11668262 0.09488822 0.1608735 0.1352257
-0.05276831 -0.021912789 -0.030533558 0.0038738062 -0.08706514 0.1547283 -0.19304506 -0.13208108
0.22057956 -0.16275194 -0.09325156 -0.1515469 -0.046775367 -0.020213487 0.002641718 -0.10412097
00000000: f587 44be 1b4f 03be 56e2 13be 99e8 5dbe
00000010: 1e38 463e f2d0 9dbd a703 0bbe 304b 7a3a
00000020: 0fd9 31be 3898 adbd 8633 88bd 1966 3dbe
00000030: 5629 92bd 10e6 d9bd 751a 54be 450f 12be
00000040: 4047 2bbd 2eed a93d dd35 b43d 1afe 123e
00000050: d877 d73d 6c4c 3b3c 5de4 0fbd 86b7 483c
00000060: b9b8 9c3d ef48 21be 9915 4f3e 6938 10be
00000070: 1baf 083e 091a d03d f998 443e 221c d4bb
00000080: ba2b 34be d0ad 13bd 1c6f 29be 04a2 d03d
00000090: 2269 50bd 026e be3d a940 d3bd fa97 0e3d
000000a0: 80b4 3a3d 2329 bb3d 8482 f43b f269 6e3c
000000b0: 28b5 4e3e 4bc1 01be d443 133e 1478 e43d
000000c0: 142e 023e 665f 9fbd 3f39 7dbd ae33 87bc
000000d0: e330 1fbe f263 0dbd 6c99 4fbe e8cd 6c3e
000000e0: 4af8 f23d b59a c43d 7df4 b2bc 361c e73d
000000f0: 36ce 44bd 47dd 9c3c 2fbe debc b264 30bc
00000100: 0e68 16be c294 17be 5a9c 41be a81a 683d
00000110: 40f2 69be 5fdf 5abe fa76 07be 2d54 473e
00000120: ad68 03bd 3592 b4bd 6995 2ebe a601 c53d
00000130: 07d3 8b3d c3d9 453c 2c1e 1fbe 0a42 513e
00000140: b8d7 e9bd 6daf 5dbd 91e3 a63a b7b6 6c3e
00000150: 2903 a4bc 0e0f 9e3d 9e28 473d 2b39 49be
00000160: a696 1b3e d114 053e 518f 8a3d 1ed3 8e3d
00000170: 916e 033e 38bd f03c e1b0 4e3d 7770 b83d
00000180: d9d7 58be 206f 2abe b269 cdbd e37e 17bd
00000190: 85af ac3d 0377 b53d 9fc0 46be 8a48 2bbd
000001a0: 729c 08bd 1d81 0bbe a8ff 23bd 8b59 94bd
000001b0: eaa2 b3bc a73d 093e 0f3c 3d3d 6cbc 1dbe
000001c0: eea8 3c3e 4bd1 8f3d c8d6 33be 5fdc 2cbe
000001d0: 8a0a d63d c729 353b fdf4 68bd 2242 a13d
000001e0: 396e dd3c 3f0c 503c 2f98 2fbe 2b99 9e3d
000001f0: ea0a b03c 1e82 183e b7f5 603d 24f2 3f3d
00000200: e9db f63d 8ff7 abbd 6da0 46be b86c 0d3c
00000210: 570e c83d 465c a63d 716e bebc bbe3 fbbd
00000220: 3486 a5bd c11e 1b3e 5bea 8d3c fc06 553e
00000230: db79 20be 64a6 6ebe 0115 0fbe 7bcf 123d
00000240: ca3e b63d 9b6f 653e 7c4f 69bd 82fe 813d
00000250: 176b c0bd 98c7 23be 14b7 333d a81f 92bd
00000260: 1f06 e33d 04e3 38be f3eb 90bc e5e4 ebbd
00000270: 88bb b63c 28f6 5cbd f63a 03be 9972 df3d
00000280: 6ec5 f43d 8362 a1bd 33dd 993d 6d5e 15be
00000290: afba d23c 6138 a43d 3761 3cbe 229d 023e
000002a0: b526 713c 4bbd c139 e53d 503e 6071 5cbe
000002b0: 237e 093e df54 e0bd 9bbc 1fbd 0eff e1bb
000002c0: c49a 6e3e 4f3b 2d3d b02e 12be 33e1 173e
000002d0: ab17 4dbe ed06 4b3e 3775 f53d 4171 983d
000002e0: 9dd7 6a3e 77bd 173d e72b 313d 111f 703e
000002f0: 7eee 4cbd dc11 b4bc 7b8a 713e 74d2 b5bd
00000300: 4992 08be 7e3e 76bd 9196 f7bc 2d53 3b3e
00000310: 2053 5bbe 26c9 e6bc 4461 ac3d f6bb 0a3e
00000320: 6cc6 313e 89f4 f03d 0c82 ac3d 69cb b8bd
00000330: 0208 3e3e 505c 19be 8e30 383e da47 dfbd
00000340: d0b7 2e3e 90db 3d3d 696d f1bc 3d1e 59be
00000350: d8dd 7d3d 78c4 b2bd dc6a d1bd ac5f 08bd
00000360: 4bb7 083e 8535 dbbc 67d2 293e e01a 54bd
00000370: 91d7 193e fe6e 3abe 6218 e5bd 13a8 5ebd
00000380: 95fa 3b3e a943 6abe 543b cdbd 2108 5a3e
00000390: 5f6f 3cbd 43f4 aabd 6453 973d 18a7 20be
000003a0: 5052 0d3e 1ecf 58bd acb0 d43d 636c fc3d
000003b0: 4cf7 eebd c154 c23d 06bc 243e 9b78 0a3e
000003c0: 9523 58bd 7382 b3bc 8321 fabc afdf 7d3b
000003d0: 354f b2bd 1871 1e3e 9bad 45be 4340 07be
000003e0: 9cdf 613e 72a8 26be adfa bebd 1c2f 1bbe
000003f0: 8797 3fbd c196 a5bc ac20 2d3b 603d d5bd

module.t_patch_modules.0.t_patch_net.0.bias f4 [16]
-0.16804573 0.22683905 0.09338073 0.18663627 -0.15993258 0.038688585 0.19528463 -0.08486367
-0.13839728 -0.20702903 -0.21316826 -0.056512345 -0.044216502 0.008665486 -0.01837283 0.20902392
00000000: 2e14 2cbe 7f48 683e 653e bf3d 941d 3f3e
00000010: 5ec5 23be ec77 1e3d b2f8 473e 01cd adbd
00000020: 04b8 0dbe 6bff 53be c848 5abe 7d79 67bd
00000030: 5d1c 35bd aff9 0d3c 9e82 96bc 5e0a 563e

module.t_patch_modules.0.t_patch_net.2.weight f4 [12]
0.9992713 0.99938846 0.9980219 0.99926543 1.0000508 0.99848837 1.0010542 0.99910486
0.99919105 1.0009031 1.001481 0.99989694
00000000: 3ed0 7f3f ecd7 7f3f 5d7e 7f3f dccf 7f3f
00000010: aa01 803f ef9c 7f3f 8b22 803f 56c5 7f3f
00000020: fcca 7f3f 981d 803f 8830 803f 3ff9 7f3f

module.t_patch_modules.0.t_patch_net.2.bias f4 [12]
0.0007731602 6.4689506e-05 0.00038696776 0.0011149392 0.00056408765 -0.0012125224 0.0009336305 -0.00017794297
0.0009824889 -3.548164e-05 -0.00023967134 -0.0006130101
00000000: e7ad 4a3a eaa9 8738 efe1 ca39 2723 923a
00000010: 48df 133a 80ed 9eba e2be 743a 3496 3ab9
00000020: dbc6 803a 1fd2 14b8 4950 7bb9 69b2 20ba

module.t_patch_modules.0.t_patch_net.2.running_mean f4 [12]
96.84798 97.44559 96.28675 96.419426 96.324 96.61074 96.409355 96.496925
96.98172 96.93776 96.727264 96.739235
00000000: 2ab2 c142 24e4 c242 d192 c042 bfd6 c042
00000010: e3a5 c042 b338 c142 97d1 c042 6dfe c042
00000020: a4f6 c142 22e0 c142 5c74 c142 7d7a c142

module.t_patch_modules.0.t_patch_net.2.running_var f4 [12]
7708.6274 7583.403 7724.2095 7773.8813 7710.088 7700.115 7671.8677 7693.6836
7634.6675 7703.268 7678.9263 7666.8745
00000000: 05e5 f045 39fb ec45 ad61 f145 0def f245
00000010: b4f0 f045 eca0 f045 f1be ef45 786d f045
00000020: 5795 ee45 25ba f045 69f7 ef45 ff96 ef45

module.t_patch_modules.0.t_patch_net.3.weight f4 [16, 16]
-0.14438814 -0.17820151 0.20077215 -0.07029657 -0.04003187 0.23170124 -0.11105852 0.060696512
0.21689853 -0.2168433 0.0059627118 -0.05640763 0.1608067 -0.16649275 -0.1711987 -0.14553201
-0.119314544 0.15155101 0.15727045 -0.07451818 0.109138206 0.20858036 -0.2442115 0.07682765
-0.09207817 0.10869255 0.18573862 -0.107027225 -0.10103007 -0.14684191 0.16097571 -0.21982801
0.016756808 0.1334093 -0.118680164 0.0054839053 -0.13102517 -0.075571135 -0.21272941 -0.17458977
0.028136855 0.19980493 0.17288008 0.21081698 0.10758231 -0.22080496 0.064383395 0.072026975
0.1525671 -0.14545785 0.06083903 -0.1391422 0.15130942 -0.2485098 0.16854322 0.10597044
0.08924228 -0.057545014 -0.21942991 -0.20276685 0.083823234 -0.12053529 -0.10033999 0.009608909
0.08419822 0.2412151 0.044013757 -0.07935993 0.24549 0.17800207 -0.06283115 0.060913965
-0.01694406 0.14201777 -0.16814865 -0.16092294 0.102166206 0.16120577 0.13950257 -0.116897956
0.24714239 0.007874956 -0.23714742 0.16199823 0.23839921 -0.03779713 0.16782963 0.058754254
-0.06326918 -0.036113754 0.23503372 -0.04808295 0.15436985 0.15450175 -0.012937344 0.07447583
0.24172203 -0.14987294 -0.09078745 0.16108543 -0.008852654 -0.06294664 0.11402709 0.07962257
-0.20352821 -0.24036434 -0.05645236 -0.14501527 -0.13485032 0.18055077 -0.22376268 -0.09158388
-0.07352177 -0.14072765 -0.19385974 -0.22968452 -0.22052233 -0.17827883 -0.110256605 0.069143176
-0.17164455 -0.008834636 0.17267881 -0.0714293 -0.11914121 0.19538271 -0.02404214 0.24204187
-0.17693195 0.07699186 0.14903261 0.028226346 0.23132265 -0.01752499 -0.2271754 0.0029593105
0.11902634 0.13635457 -0.16409102 0.11372841 -0.24645214 0.09489372 -0.097884566 -0.023609286
-0.15885024 -0.13649079 -0.1718068 -0.24146289 0.20001729 -0.09622029 0.067344874 -0.010070164
0.2148922 0.14723419 -0.03961551 0.1571913 -0.06597843 0.0049033016 0.14064603 0.034923617
-0.06731259 0.1563936 0.031180892 -0.21188767 0.068734966 -0.19623901 -0.05285434 -0.219314
0.09974424 -0.15841056 0.034136426 0.15878095 0.14583571 0.1842991 0.19310015 0.12313182
-0.04734671 -0.052559283 0.13531987 0.23940332 -0.14279112 0.0015135113 -0.17319077 0.10744981
-0.21090244 0.16400932 -0.20293193 0.15873638 -0.14800943 0.13089913 0.006117913 0.040476084
-0.05075809 -0.07708541 -0.1407788 0.10485527 -0.24909432 0.1466942 -0.18223663 -0.043629956
0.1500192 0.16708454 0.05381948 0.24216545 -0.15001716 0.052595362 0.13889647 0.1361086
-0.12634324 -0.03513568 0.053762194 -0.12424725 -0.11517245 -0.011232453 -0.15313587 -0.20253265
0.054728117 0.17232929 -0.11058914 0.1986235 -0.027877185 0.19076173 0.061740685 0.106316224
-0.08338174 -0.12528737 -0.026003286 -0.11049003 -0.060976304 -0.24465251 -0.065930314 -0.03926421
-0.089616686 0.13229609 0.15156658 0.057870716 -0.09307101 0.10787195 0.2293967 0.13752842
-0.053412363 0.15947983 -0.12003248 -0.20419085 0.10951769 0.18879189 -0.02759895 0.036146086
-0.07049146 0.14432155 0.20355125 0.12330541 0.10544527 -0.19580182 0.2428142 0.051648125
00000000: 7cda 13be 757a 36be 3797 4d3e a6f7 8fbd
00000010: 75f8 23bd 1743 6d3e a672 e3bd e89c 783d
00000020: a61a 5e3e 2c0c 5ebe da62 c33b b00b 67bd
00000030: 83aa 243e 137d 2abe b64e 2fbe 5806 15be
00000040: 2f5b f4bd 3030 1b3e 810b 213e fd9c 98bd
00000050: da83 df3d 1796 553e 9412 7abe d157 9d3d
00000060: 7b93 bcbd 339a de3d 4432 3e3e 1731 dbbd
00000070: dae8 cebd ba5d 16be d1d6 243e 981a 61be
00000080: 9345 893c 739c 083e 960e f3bd 55b2 b33b
00000090: 762b 06be 0ac5 9abd bdd5 59be a9c7 32be
000000a0: 437f e63c aa99 4c3e 7a07 313e 68e0 573e
000000b0: 1d54 dc3d b21a 62be 71db 833d e182 933d
000000c0: 8d3a 1c3e e7f2 14be 5932 793d 4b7b 0ebe
000000d0: dbf0 1a3e 5a79 7ebe 9896 2c3e 0807 d93d
000000e0: a8c4 b63d 52b4 6bbd 3cb2 60be 1da2 4fbe
000000f0: 84ab ab3d 35db f6bd 0d7f cdbd af6e 1d3c
00000100: 1e70 ac3d 1701 773e c547 343d 7587 a2bd
00000110: bb61 7b3e 2d46 363e 9ead 80bd ec80 793d
00000120: 45ce 8abc 1b6d 113e 292f 2cbe fcc8 24be
00000130: 843c d13d 2013 253e c3d9 0e3e 3268 efbd
00000140: e512 7d3e f605 013c c6d6 72be dde2 253e
00000150: ec1e 743e 2ad1 1abd 88db 2b3e 4da8 703d
00000160: 4693 81bd 04ec 13bd aeac 703e a1f2 44bd
00000170: 2113 1e3e b535 1e3e 27f7 53bc c986 983d
00000180: fb85 773e 4b78 19be c5ee b9bd 94f3 243e
00000190: b90a 11bc 2bea 80bd 0987 e93d 2811 a33d
000001a0: b369 50be 1222 76be 973a 67bd e27e 14be
000001b0: 3416 0abe 4de2 383e 0b22 65be 5490 bbbd
000001c0: 9592 96bd e91a 10be 2b83 46be 6b32 6bbe
000001d0: 9bd0 61be ba8e 36be 37ce e1bd f09a 8d3d
000001e0: 97c3 2fbe 26bf 10bc b7d2 303e 8649 92bd
000001f0: 4f00 f4bd 6812 483e 06f4 c4bc d3d9 773e
00000200: a62d 35be e9ad 9d3d 019c 183e f03a e73c
00000210: d8df 6c3e 9190 8fbc aba0 68be fef0 413b
00000220: 15c4 f33d 88a0 0b3e 7a07 28be 71ea e83d
00000230: f35d 7cbe a357 c23d b477 c8bd 4368 c1bc
00000240: a3a9 22be 3ec4 0bbe 1fee 2fbe 0c42 77be
00000250: 55d1 4c3e 250f c5bd 1cec 893d 54fd 24bc
00000260: b30c 5c3e 8fc4 163e df43 22bd c2f6 203e
00000270: b31f 87bd e0ab a03b 8305 103e 110c 0f3d
00000280: 2fdb 89bd a525 203e 126f ff3c 15f9 58be
00000290: ebc4 8c3d e1f2 48be cb7d 58bd d993 60be
000002a0: b546 cc3d 6136 22be a3d2 0b3d 7997 223e
000002b0: f555 153e e7b8 3c3e 0cbc 453e 892c fc3d
000002c0: a0ee 41bd 6748 57bd 4b91 0a3e 2526 753e
000002d0: d637 12be 0361 c63a ec58 31be a50e dc3d
000002e0: cff6 57be 0ff2 273e 63cd 4fbe ca8b 223e
000002f0: c98f 17be 6c0a 063e c678 c83b 40ca 253d
00000300: b7e7 4fbd f5de 9dbd 5128 10be 5cbe d63d
00000310: 9512 7fbe 0137 163e 3d9c 3abe 53b5 32bd
00000320: a29e 193e 3618 2b3e d171 5c3d 38fa 773e
00000330: 199e 19be 3c6e 573d e03a 0e3e 0e60 0b3e
00000340: 1f60 01be 6eea 0fbd bf35 5c3d 5875 febd
00000350: 89df ebbd 5308 38bc a6cf 1cbe b864 4fbe
00000360: 972a 603d 1777 303e 8f7c e2bd f563 4b3e
00000370: b25e e4bc 0b57 433e cde3 7c3d 52bc d93d
00000380: 0cc4 aabd 554b 00be d804 d5bc 9948 e2bd
00000390: 4ac2 79bd 3086 7abe 7906 87bd 82d3 20bd
000003a0: f488 b7bd a078 073e 4534 1b3e d809 6d3d
000003b0: 049c bebd f8eb dc3d f8e6 6a3e 40d4 0c3e
000003c0: ecc6 5abd ae4e 233e 97d3 f5bd 6817 51be
000003d0: d04a e03d a952 413e 3117 e2bc eb0d 143d
000003e0: d45d 90bd 07c9 133e bd6f 503e 8c87 fc3d
000003f0: b1f3 d73d 4680 48be 49a4 783e fc8c 533d

module.t_patch_modules.0.t_patch_net.3.bias f4 [16]
0.16463341 0.13358325 0.24134016 -0.010524759 0.019509118 0.04802351 0.07244783 -0.12012493
0.13737302 0.22059739 0.036084786 -0.14381239 0.08485027 0.022313984 -0.09721713 0.11566992
00000000: a995 283e 0cca 083e e021 773e 0a70 2cbc
00000010: 96d1 9f3c 4db4 443d 875f 943d 0f04 f6bd
00000020: 83ab 0c3e 48e4 613e a4cd 133d 8e43 13be
00000030: fac5 ad3d d1cb b63c c619 c7bd 5ae4 ec3d

module.t_patch_modules.0.t_patch_net.5.weight f4 [12]
1.0002367 0.9991345 0.99855906 1.0006183 1.0002297 0.99990326 0.9995637 1.0001849
1.0000092 1.0000614 1.0007269 0.99987763
00000000: c207 803f 47c7 7f3f 91a1 7f3f 4314 803f
00000010: 8707 803f a9f9 7f3f 68e3 7f3f 0f06 803f
00000020: 4d00 803f 0302 803f d217 803f fbf7 7f3f

module.t_patch_modules.0.t_patch_net.5.bias f4 [12]
-0.0008417429 0.0009174668 0.00046585622 0.00090878934 -0.0003899552 0.00013539185 -0.00091382745 0.00024017335
-0.0013009997 -0.00022031143 -0.00014751227 -3.333368e-05
00000000: 69a8 5cba 2882 703a 2a3e f439 d23b 6e3a
00000010: e772 ccb9 f9f7 0d39 ec8d 6fba 0bd7 7b39
00000020: 4e86 aaba 6603 67b9 86ad 1ab9 c4cf 0bb8

module.t_patch_modules.0.t_patch_net.5.running_mean f4 [12]
0.24546653 0.24348347 0.24698542 0.24764198 0.24711613 0.24576052 0.2463426 0.24610542
0.24428745 0.24554195 0.24519353 0.24525341
00000000: 945b 7b3e bb53 793e bfe9 7c3e dc95 7d3e
00000010: 030c 7d3e a5a8 7b3e 3c41 7c3e 0f03 7c3e
00000020: 7d26 7a3e 596f 7b3e 0314 7b3e b623 7b3e

module.t_patch_modules.0.t_patch_net.5.running_var f4 [12]
0.07547175 0.074921146 0.07632424 0.07690591 0.07662839 0.0758014 0.07622136 0.07589523
0.07499066 0.075632714 0.07547461 0.07548683
00000000: ef90 9a3d 4270 993d e24f 9c3d d980 9d3d
00000010: 58ef 9c3d c43d 9b3d f219 9c3d f56e 9b3d
00000020: b494 993d 53e5 9a3d 6f92 9a3d d798 9a3d

module.t_patch_modules.0.t_patch_net.6.weight f4 [32, 16]
-0.03749214 -0.023507837 0.1597638 0.15223981 -0.08945259 0.20533682 0.22226991 0.065063134
0.2204949 0.20834474 0.19032234 0.22830524 0.06782068 -0.18775669 -0.11557233 -0.13804403
0.043395985 -0.04145562 0.11761375 -0.009926245 0.04113616 -0.10272941 0.24592099 0.15664922
0.100729086 -0.04465741 0.13758612 0.16168118 -0.06303578 -0.17387006 0.07554186 -0.050095096
0.15754285 0.14497952 0.047755655 -0.048840437 0.06065332 -0.18667798 -0.03695935 0.16633473
0.20258951 -0.008163286 0.22573717 -0.05766263 0.19378306 -0.07319988 0.05516688 0.017898671
0.14836875 -0.1670227 0.1698081 0.07577126 -0.19880216 0.24003795 -0.22884808 -0.18333007
-0.13682751 -0.15467113 -0.043998107 -0.1669033 0.09970042 -0.12632902 -0.24533036 0.11923806
0.10299899 -0.035282407 0.21581207 -0.19286077 0.24034622 0.038328815 -0.0944536 -0.002188856
-0.22553648 0.1354258 0.19173896 -0.12500112 -0.09408459 0.014326249 -0.21734759 -0.11094272
-0.1907579 0.114825115 -0.20705089 -0.18582883 -0.09687373 0.02619274 -0.22216603 0.20757164
0.11237059 -0.07423931 0.08988496 0.106511675 0.17558444 0.120089635 0.20034944 -0.012401323
0.23773351 0.036474448 0.18470404 0.019754646 -0.023194313 0.10035762 -0.041576922 -0.07653926
0.12289775 -0.18713598 0.23821005 -0.018487263 0.15509179 0.2082146 0.24710539 0.11373574
-0.051532663 -0.02480066 0.120857164 0.006870688 -0.21111935 -0.15901774 0.17619604 0.16863625
-0.08385338 -0.22014569 0.13521534 -0.0015623994 0.0307127 0.23528852 0.043922726 -0.075527504
0.039617002 0.17002966 0.15584628 0.03527746 -0.07626494 0.24885234 -0.09995098 -0.20183313
-0.025518944 0.09976719 0.15474872 -0.2009006 0.13127202 0.24031456 -0.15174766 0.09747795
-0.15048942 0.07894352 0.14186704 0.032643795 0.12896267 0.13698962 -0.17743114 0.16900337
-0.18560782 -0.09728116 0.02253151 0.061368078 -0.07180387 -0.07251215 0.15356207 -0.23010775
0.17679647 0.16114157 0.077939875 -0.14722647 0.14176075 -0.23656902 -0.24982114 -0.057504192
-0.03428817 -0.1729232 -0.03491147 0.20239078 0.16343197 -0.08180955 0.12602098 -0.15917554
0.20713057 0.09292525 -0.025220424 0.2412685 0.11066216 -0.12738949 -0.15912661 0.23075098
0.032866303 0.20220529 -0.16453522 -0.12378358 -0.058820657 -0.06561343 0.04868368 -0.23019722
0.21435983 -0.18835875 0.118683055 0.19506994 -0.16142093 0.0017576249 0.23541892 0.10155201
0.10071587 0.13325997 0.16236395 -0.19855762 -0.10766285 0.01876987 -0.16772036 -0.21773644
0.16283698 0.23794547 0.16245571 0.116724335 -0.20310584 0.12675287 -0.17978679 0.16381708
-0.20642722 -0.023554837 -0.24778424 0.061836418 0.0773617 -0.054424275 0.19976032 0.17122479
0.021465402 0.14516121 0.08878733 -0.09918374 0.18187098 0.19535889 -0.13723364 0.12863979
-0.07725738 -0.08169549 -0.13174766 0.023105145 -0.14763772 -0.021329043 -0.23508821 0.18075597
-0.2055562 -0.07093018 0.20118234 -0.19244803 0.24202849 0.026986182 -0.03094421 -0.06270817
0.0015306636 -0.08865139 -0.05504142 -0.018752946 -0.099240385 0.22879729 0.01973599 -0.011339798
00000000: 5c91 19bd 8293 c0bc 1f99 233e c1e4 1b3e
00000010: eb32 b7bd d143 523e b99a 633e d23f 853d
00000020: 6ac9 613e 5358 553e dce3 423e d9c8 693e
00000030: 92e5 8a3d 4a43 40be 30b1 ecbd 6a5b 0dbe
00000040: fdbf 313d 5ecd 29bd 7adf f03d b0a1 22bc
00000050: 647e 283d cc63 d2bd b6d2 7b3e a768 203e
00000060: 0d4b ce3d b0ea 36bd 60e3 0c3e c08f 253e
00000070: e718 81bd fe0a 32be b1b5 9a3d 8430 4dbd
00000080: ea52 213e 8375 143e 6f9b 433d e90c 48bd
00000090: 9e6f 783d 8328 3fbe b062 17bd a753 2a3e
000000a0: a073 4f3e 4ebf 05bc a527 673e a62f 6cbd
000000b0: 116f 463e d2e9 95bd abf6 613d 3ca0 923c
000000c0: faed 173e 0008 2bbe 2de2 2d3e f62d 9b3d
000000d0: cb92 4bbe 82cc 753e 2757 6abe e1ba 3bbe
000000e0: 831c 0cbe 1c62 1ebe 5c37 34bd b3e8 2abe
000000f0: bc2f cc3d 655c 01be e237 7bbe 1633 f43d
00000100: 22f1 d23d 4984 10bd d7fd 5c3e 4b7d 45be
00000110: 521d 763e adfe 1c3d e470 c1bd e972 0fbb
00000120: 09f3 66be 10ad 0a3e 3857 443e 4b00 00be
00000130: 6caf c0bd a5b8 6a3c 5e90 5ebe f035 e3bd
00000140: 0a56 43be 6e29 eb3d 2605 54be ea49 3ebe
00000150: bc65 c6bd 2892 d63c 7e7f 63be a98d 543e
00000160: 8d22 e63d c80a 98bd 9b15 b83d cb22 da3d
00000170: 68cc 333e 8ef1 f53d 6728 4d3e eb2e 4bbc
00000180: 6a70 733e 3b66 153d 0e23 3d3e 7fd4 a13c
00000190: 0002 bebc 4c88 cd3d 904c 2abd 9ec0 9cbd
000001a0: d1b1 fb3d 93a0 3fbe 56ed 733e 9a72 97bc
000001b0: 62d0 1e3e 3536 553e 3209 7d3e 49ee e83d
000001c0: ea13 53bd c12a cbbc f683 f73d 8223 e13b
000001d0: ac2f 58be 8cd5 22be bc6c 343e fbae 2c3e
000001e0: 52bb abbd df6d 61be e475 0a3e 6dc9 ccba
000001f0: 3399 fb3c 79ef 703e 51e8 333d 2aae 9abd
00000200: 7045 223d 411c 2e3e 2b96 1f3e 197f 103d
00000210: cb30 9cbd 26d3 7e3e 19b3 ccbd 58ad 4ebe
00000220: 1b0d d1bc be52 cc3d 7376 1e3e e3b8 4dbe
00000230: 2c6c 063e 0515 763e bd63 1bbe 85a2 c73d
00000240: e619 1abe 24ad a13d 9845 113e 80b5 053d
00000250: ca0e 043e 0247 0c3e 82b0 35be 380f 2d3e
00000260: fa0f 3ebe 583b c7bd 0094 b83c 185d 7b3d
00000270: e80d 93bd 4081 94bd 603f 1d3e 5ea1 6bbe
00000280: 220a 353e 4c02 253e f19e 9f3d 89c2 16be
00000290: bb29 113e 263f 72be 1dd1 7fbe 8489 6bbd
000002a0: c171 0cbd c812 31be 54ff 0ebd 873f 4f3e
000002b0: b65a 273e c48b a7bd a50b 013e eafe 22be
000002c0: 091a 543e 984f be3d 109b cebc 170f 773e
000002d0: d8a2 e23d 6472 02be 16f2 22be fc49 6c3e
000002e0: d19e 063d e70e 4f3e ec7b 28be 3f82 fdbd
000002f0: eeed 70bd 5660 86bd 8a68 473d d2b8 6bbe
00000300: 2581 5b3e 1ee1 40be 1a10 f33d 6ac0 473e
00000310: 874b 25be 1b60 e63a a811 713e 80fa cf3d
00000320: 1f44 ce3d 4d75 083e bc42 263e b052 4bbe
00000330: 577e dcbd 45c3 993c e3be 2bbe 4df6 5ebe
00000340: bdbe 263e faa7 733e ca5a 263e 2b0d ef3d
00000350: fafa 4fbe 81cb 013e 071a 38be aabf 273e
00000360: a861 53be 13f6 c0bc 27bb 7dbe 2f48 7d3d
00000370: d06f 9e3d fdeb 5ebd f88d 4c3e 8d55 2f3e
00000380: 36d8 af3c 24a5 143e 22d6 b53d d820 cbbd
00000390: 633c 3a3e 290c 483e fa86 0cbe 26ba 033e
000003a0: 1e39 9ebd f74f a7bd dce8 06be 0047 bd3c
000003b0: 582e 17be 3fba aebc f7ba 70be 1818 393e
000003c0: 537d 52be d843 91bd be02 4e3e 1911 45be
000003d0: 51d6 773e 2012 dd3c b67e fdbc 246d 80bd
000003e0: 8ca0 c83a dc8e b5bd 1d73 61bd c79f 99bc
000003f0: 8b3e cbbd d649 6a3e 5fad a13c 8fca 39bc

module.t_patch_modules.0.t_patch_net.6.bias f4 [32]
-0.18334664 0.10626646 0.039757542 -0.06258758 0.23092863 -0.19893199 0.22241987 -0.24578623
-0.12264136 -0.249396 -0.052190997 -0.15147984 0.18749377 -0.14607736 -0.15694231 -0.20110728
0.062260825 -0.016588306 -0.067170195 0.23533417 0.06487921 -0.14230457 0.18666407 -0.126793
-0.17040098 -0.105145246 -0.06300457 -0.09007049 -0.046792436 0.1874862 0.2448437 0.043527078
00000000: 39bf 3bbe 3ba2 d93d ced8 223d eb2d 80bd
00000010: 8e78 6c3e d4b4 4bbe 09c2 633e 63af 7bbe
00000020: 652b fbbd aa61 7fbe 3ac6 55bd 881d 1bbe
00000030: 5efe 3f3e 4e95 15be 7cb5 20be 11ef 4dbe
00000040: 3505 7f3d 33e4 87bc 8790 89bd 71fb 703e
00000050: 64df 843d 4ab8 11be de24 3f3e 06d6 01be
00000060: 987d 2ebe 6456 d7bd 8a08 81bd e176 b8bd
00000070: 6da9 3fbd 62fc 3f3e 4fb8 7a3e 7349 323d

module.t_patch_modules.0.t_patch_net.8.weight f4 [12]
0.99953306 1.0000848 0.9984309 1.0013386 0.99882483 0.9996935 1.0011134 0.99996096
1.0001272 1.0003521 1.0000427 0.9995582
00000000: 66e1 7f3f c702 803f 2b99 7f3f dd2b 803f
00000010: fcb2 7f3f eaeb 7f3f 7c24 803f 71fd 7f3f
00000020: 2b04 803f 8a0b 803f 6601 803f 0ce3 7f3f

module.t_patch_modules.0.t_patch_net.8.bias f4 [12]
0.0009831418 -0.0011577266 -0.0014228 -0.00047073455 -0.0010557462 0.0015558931 0.0005164417 -3.2213986e-05
-0.0015019317 0.00097085466 -0.0008524247 -0.000453567
00000000: c4dc 803a dcbe 97ba 3f7d baba eccc f6b9
00000010: f760 8aba 1cef cb3a d161 073a 811d 07b8
00000020: 77dc c4ba f480 7e3a 4175 5fba bbcc edb9

module.t_patch_modules.0.t_patch_net.8.running_mean f4 [12]
0.2080538 0.20864245 0.20814984 0.2092943 0.20879559 0.20919028 0.20818241 0.20859192
0.20881443 0.20834641 0.2080629 0.20772035
00000000: 0e0c 553e 5ea6 553e 3b25 553e 3f51 563e
00000010: 83ce 553e fa35 563e c52d 553e 1f99 553e
00000020: 73d3 553e c358 553e 710e 553e a5b4 543e

module.t_patch_modules.0.t_patch_net.8.running_var f4 [12]
0.12631106 0.12679335 0.12565115 0.12595463 0.12608573 0.12624405 0.12601393 0.12621398
0.1269752 0.12623093 0.126439 0.12609358
00000000: b057 013e 1ed6 013e b2aa 003e 40fa 003e
00000010: 9e1c 013e 1f46 013e cc09 013e 3d3e 013e
00000020: c905 023e ae42 013e 3a79 013e ad1e 013e

module.t_patch_modules.0.t_patch_net.9.weight f4 [12, 12, 8, 8]
0.033105757 0.028756788 -0.004767621 -0.029463822 0.018076599 0.02511355 -0.029074544 0.030897005
-0.019122383 0.025456732 0.030162752 0.014472139 -0.032989312 0.01049772 0.019602804 -0.004657344
-0.0016938737 -0.023118164 0.015758779 -0.022952776 -0.012696061 -0.0009880756 -0.022665983 0.01962238
0.014983443 -0.005928912 -0.022145301 0.013301314 0.009640019 0.008286492 0.031604905 -0.00859494
-0.008054067 0.01787042 -0.0110634165 0.009091847 -0.012094917 0.0050511495 -0.0056185634 0.015054906
-0.008645259 -0.01152295 -0.007953703 0.024532799 -0.029999675 -0.010021505 -0.034253053 0.01426663
-0.002420541 -0.028871778 0.026822845 -0.010999935 0.005883828 0.01731975 0.03159546 0.013166303
0.0032101166 -0.03191757 -0.01581537 0.025107525 -0.008770453 -0.020411603 -0.013335327 0.0147246495
-0.01583579 -0.006953036 -0.028747076 0.010964655 0.018562518 -0.0027221194 0.0013035678 0.030967968
0.003978071 -0.00024291105 0.031252872 0.013618784 0.021863395 0.011252953 -0.0017708964 0.03553817
0.017100167 -0.023549924 -0.025891904 0.005197247 -0.012015753 -0.02396625 0.015983941 -0.0040240367
0.029161617 0.0040045483 0.0039351117 -0.011571968 0.016476016 0.008770839 -0.008203097 -0.022903949
0.002714721 -0.0087702675 -0.008563057 -0.020433431 -0.029785842 -0.033501424 -0.035884276 -0.0026765626
-0.022884184 0.009561657 0.036121126 -0.029438147 0.016121857 -0.023496002 0.008963526 -0.006345532
0.010331058 -0.015258515 -0.019505542 -0.011277231 0.022193037 -0.009616072 -0.017876308 -0.00023615727
0.014405247 -0.034120068 0.03128026 0.018418578 -0.00845412 -0.00948739 0.00051863864 -0.011119976
-0.029328937 -0.030960798 -0.03272983 0.031228073 -0.023275124 -0.00150739 0.008537296 0.008162497
0.016274583 -0.02185968 0.017890442 -0.017346049 -0.01499063 0.007521091 -0.012282754 -0.016455887
-0.0056591877 -0.0026413146 -0.021136066 -0.015573093 -0.034848023 0.006113971 -0.029714951 0.017649366
0.027769929 -0.026453277 0.009694031 0.034766246 -0.0141425645 0.01497132 0.03112141 0.01019856
0.020188406 -0.0003155925 0.011101186 -0.025841696 -0.029031172 0.022574216 0.027939517 -0.03417082
-0.02220913 -0.01474979 -0.027859153 0.010545151 -0.017105903 -0.02103445 0.00306386 0.035617486
0.0014337326 -0.032818593 -0.008001198 0.036723852 -0.013631266 -0.0053636767 -0.032492958 -0.031453863
0.033428915 0.0029187105 0.0011539384 0.024283191 0.011106757 -0.011926996 0.0114154015 0.018392662
-0.022571547 0.019363483 0.031933986 0.014505672 0.00930063 -0.010848235 0.021288538 0.03350146
0.017592387 0.03180034 0.015278319 -0.0115334885 0.025617966 -0.006249601 -0.006069487 -0.023467021
-0.012766861 0.014438276 -0.011195897 0.023653062 0.0030553006 0.031140639 0.02207729 -0.00019514615
-0.03375231 0.00086631277 0.03492739 -0.03117638 0.007715908 -0.01675733 -0.015064955 -0.0074146898
0.03053146 0.027090114 0.018628985 0.0034770996 -0.033587325 -0.024380747 -0.009715305 0.0125720585
-0.018509245 -0.031255394 0.006711591 0.016990066 -0.021096252 0.02203199 0.019238247 -0.021999966
-0.007408536 0.00995201 -0.017605435 -0.03276879 -0.018947734 -0.013107239 -0.013084016 0.026726589
-0.009729265 -0.014143931 0.018604767 0.019331925 -0.026682466 0.0015360458 0.011441351 0.037791587
00000000: e799 073d 5b93 eb3c b439 9cbb 1d5e f1bc
00000010: 6015 943c eeba cd3c bd2d eebc b71b fd3c
00000020: 8ba6 9cbc a38a d03c e017 f73c 8d1c 6d3c
00000030: cd1f 07bd a1fe 2b3c 0f96 a03c a29c 98bb
00000040: f804 deba 4e62 bdbc 8e18 813c 7607 bcbc
00000050: 2403 50bc 5182 81ba 03ae b9bc 1dbf a03c
00000060: 1d7d 753c 5247 c2bb 106a b5bc c1ed 593c
00000070: 2cf1 1d3c 11c4 073c 2574 013d cbd1 0cbc
00000080: 35f5 03bc fd64 923c 5543 35bc f8f5 143c
00000090: c229 46bc 1d84 a53b ed1b b8bb daa8 763c
000000a0: d8a4 0dbc c1ca 3cbc 4050 02bc 02f9 c83c
000000b0: e1c1 f5bc 3d31 24bc ee4c 0cbd 95be 693c
000000c0: f0a1 1ebb 8284 ecbc 95bb db3c 1239 34bc
000000d0: 20cd c03b 26e2 8d3c 3e6a 013d 7ab7 573c
000000e0: d260 523b ffbb 02bd 3c8f 81bc 4cae cd3c
000000f0: f2b1 0fbc 3c36 a7bc 6a7c 5abc a83f 713c
00000100: 0fba 81bc 4bd6 e3bb fd7e ebbc 19a5 333c
00000110: 6c10 983c 9665 32bb 7adc aa3a 89b0 fd3c
00000120: 7a5a 823b f0b5 7eb9 0303 003d 5221 5f3c
00000130: dd1a b33c 4e5e 383c 6c1d e8ba 7990 113d
00000140: a615 8c3c c5eb c0bc 421b d4bc ab4d aa3b
00000150: b9dd 44bc de54 c4bc c1f0 823c 11dc 83bb
00000160: 58e4 ee3c 9638 833b 1cf2 803b 5a98 3dbc
00000170: b6f8 863c 91b3 0f3c 4866 06bc 10a1 bbbc
00000180: 76e9 313b 2bb1 0fbc 104c 0cbc 0364 a7bc
00000190: 7001 f4bc ca38 09bd 64fb 12bd 4569 2fbb
000001a0: 9d77 bbbc 7fa8 1c3c bff3 133d 4528 f1bc
000001b0: fc11 843c b07a c0bc c1db 123c 2eee cfbb
000001c0: 9943 293c dafe 79bc 16ca 9fbc 23c4 38bc
000001d0: 2cce b53c bb8c 1dbc 5671 92bc fca0 77b9
000001e0: fc03 6c3c 7cc1 0bbd bb1f 003d 8fe2 963c
000001f0: 2683 0abc ff70 1bbc 40f5 073a 8f30 36bc
00000200: 3d43 f0bc 80a1 fdbc b70f 06bd 04d2 ff3c
00000210: 79ab bebc 9e93 c5ba 04e0 0b3c febb 053c
00000220: 4652 853c 1213 b3bc fa8e 923c 4d19 8ebc
00000230: 429b 75bc 7c73 f63b 9b3d 49bc 7fce 86bc
00000240: b570 b9bb e819 2dbb 8b25 adbc 4926 7fbc
00000250: cdbc 0ebd b557 c83b c56c f3bc 6795 903c
00000260: c37d e33c 8bb4 d8bc b7d3 1e3c 0d67 0e3d
00000270: 37b6 67bc 444a 753c 54f2 fe3c dc17 273c
00000280: 2862 a53c 1c76 a5b9 c0e1 353c f7b1 d3bc
00000290: c8d2 edbc 90ed b83c 6ae1 e43c b4f6 0bbd
000002a0: ecef b5bc 1aa9 71bc e138 e4bc 92c5 2c3c
000002b0: ae21 8cbc 7050 acbc 0acb 483b a4e3 113d
000002c0: 15ec bb3a ca6c 06bd 7517 03bc c06b 163d
000002d0: ac55 5fbc c8c1 afbb 5617 05bd c4d5 00bd
000002e0: c2ec 083d d647 3f3b bf3f 973a 8bed c63c
000002f0: 1ef9 353c 7269 43bc aa07 3b3c 35ac 963c
00000300: f7e7 b8bc 2ba0 9e3c 36cd 023d 33a9 6d3c
00000310: ab61 183c ccbc 31bc 4d65 ae3c d438 093d
00000320: e91d 903c 1341 023d ea51 7a3c f5f6 3cbc
00000330: c5dc d13c 74c9 ccbb 8ce2 c6bb e93d c0bc
00000340: 192c 51bc 858e 6c3c ff6e 37bc 11c4 c13c
00000350: 703b 483b a71a ff3c 6fdb b43c 25a0 4cb9
00000360: dd3f 0abd 4419 633a 0610 0f3d 9c65 ffbc
00000370: bad5 fc3b ab46 89bc 00d3 76bc edf6 f2bb
00000380: 1d1d fa3c 16ec dd3c d09b 983c 0de0 633b
00000390: dd92 09bd 22ba c7bc f12c 1fbc 09fb 4d3c
000003a0: b3a0 97bc a805 00bd e8ec db3b c02e 8b3c
000003b0: 0cd2 acbc 6f7c b43c 8799 9d3c 4639 b4bc
000003c0: 4ec3 f2bb c10d 233c 4639 90bc 9138 06bd
000003d0: 4738 9bbc bfbf 56bc 575e 56bc b8f1 da3c
000003e0: 7f67 1fbc f2bb 67bc 0669 983c fc5d 9e3c
000003f0: 3095 dabc 2555 c93a 8174 3b3c 5acb 1a3d

module.t_patch_modules.0.t_patch_net.9.bias f4 [12]
0.014594739 0.019799855 0.03578275 0.0027764956 -0.027436439 0.013982108 0.022009261 -0.008753676
-0.022160111 0.019658571 0.006474271 0.005073888
00000000: c61e 6f3c 4e33 a23c ef90 123d def5 353b
00000010: 62c2 e0bc 3615 653c c44c b43c 946b 0fbc
00000020: 1f89 b5bc 030b a13c 1f26 d43b dc42 a63b

module.t_patch_modules.0.t_patch_net.11.weight f4 [12]
1.0002984 1.0001564 1.0003663 1.00054 1.0003263 0.9981538 1.0004785 1.000275
0.9992321 1.0013621 0.9989689 0.999223
00000000: c709 803f 2005 803f 010c 803f b211 803f
00000010: b10a 803f 0287 7f3f ae0f 803f 0309 803f
00000020: adcd 7f3f a22c 803f 6dbc 7f3f 14cd 7f3f

module.t_patch_modules.0.t_patch_net.11.bias f4 [12]
-0.0004930797 0.00069346995 -0.0010449495 0.00039152437 0.00028163867 -0.0018971454 0.0012843111 -0.0009171856
-9.814025e-05 -0.0005299471 -0.00019107209 -0.0011854031
00000000: 0542 01ba fbc9 353a b0f6 88ba 8345 cd39
00000010: e7a8 9339 a3a9 f8ba 5456 a83a 496f 70ba
00000020: a5d0 cdb8 26ec 0aba 865a 48b9 875f 9bba

module.t_patch_modules.0.t_patch_net.11.running_mean f4 [12]
0.26883104 0.3132319 0.17814605 0.40211415 0.23995803 0.21139939 0.25797144 0.14890826
0.21628657 0.25186458 0.22911216 0.17779237
00000000: 39a4 893e ee5f a03e eb6b 363e e8e1 cd3e
00000010: 8fb7 753e 1579 583e d514 843e 687b 183e
00000020: 3a7a 5d3e 65f4 803e 619c 6a3e 340f 363e

module.t_patch_modules.0.t_patch_net.11.running_var f4 [12]
0.13856316 0.19306456 0.05992333 0.3038393 0.13395959 0.07861143 0.18162403 0.04650764
0.098911256 0.13255464 0.09672043 0.08177573
00000000: 80e3 0d3e b7b2 453e 2a72 753d d390 9b3e
00000010: b42c 093e 08ff a03d a6fb 393e cc7e 3e3d
00000020: fc91 ca3d 67bc 073e 5c15 c63d 097a a73d

module.t_patch_modules.1.t_patch_net.0.weight f4 [32, 192]
-0.03470878 0.03516998 -0.04626939 0.029775947 0.05096764 0.017483352 0.017940119 -0.02700434
-0.040290013 0.026773954 0.030743409 -0.04881823 0.024873903 0.040792778 -0.006340895 -0.015132917
0.052254796 -0.06392727 0.016570002 0.018210096 -0.0071916557 -0.07152633 0.031137638 -0.022785304
0.015929569 -0.034798093 -0.060176976 0.0040687122 -0.019601919 -0.0008923954 -0.06094896 -0.017403416
0.010638254 0.06748327 0.04707929 0.055334814 0.007734593 -0.0041588657 0.04087664 0.042334396
-0.051379744 0.04375477 0.014695496 0.051134463 -0.036497507 0.009536576 0.06497658 -0.002231262
0.055809844 0.0007004172 0.03537233 0.05747526 -0.018788023 -0.051312927 0.049798436 -0.043795247
-0.0052746967 0.04634343 -0.043931525 0.031813312 0.07122014 -0.035287082 -0.0018711305 -0.03575274
-0.06875162 -0.02512561 0.046270784 -0.010006983 0.024154272 -0.062377725 -0.06925951 -0.06947193
-0.0404512 -0.06993182 0.0014698382 -0.028259926 0.018401729 0.026541105 -0.0512928 0.052687306
-0.0026485801 -0.002769522 0.05099429 -0.0711493 -0.061782967 0.06984857 0.00048268854 0.0034319498
-0.046766084 0.0008396848 0.063760065 -0.06673094 0.0017855548 0.03554332 0.010548978 -0.029356834
-0.0076927408 0.06632345 0.0579603 -0.044847924 0.04421953 0.06647913 0.026667707 -0.043338448
0.04705305 -0.0064128577 -0.013175145 0.00012458565 0.039692394 0.03547961 -0.064613275 0.013443453
0.010539646 0.04240073 -0.07082596 -0.036555212 0.021276718 -0.039941702 -0.053432327 -0.016234914
0.019185666 0.017512979 -0.017578442 0.047203198 0.06322939 0.06243452 0.033126805 0.049274553
0.015191145 -0.030084293 -0.005553158 -0.03573481 -0.008525995 -0.0712042 -0.02309421 -0.003748705
-0.0041863336 -0.04576083 0.05475815 0.05734174 -0.054515306 0.04244817 0.04786803 0.016838325
-0.015572383 -0.06322531 0.057222735 -0.0271262 0.028848168 -0.03333577 0.011707507 -0.045916732
-0.016607007 -0.0539887 0.047413737 0.042854257 0.0007802585 -0.040275883 0.0035716228 -0.05480879
-0.009397166 -0.057887282 0.044224992 -0.02335323 -0.0636079 -0.032130048 -0.03665268 0.018911267
0.066494115 -0.06387275 0.026406381 0.005103339 -0.010691187 -0.04588078 -0.037062682 -0.06699225
-0.04687791 0.009846224 -0.008966488 -0.044070095 0.05752121 -0.005554884 0.036019534 -0.007241954
-0.061573997 0.020328475 -0.005333109 -0.020928156 -0.038975958 -0.05708574 0.054466803 0.043905966
0.019721128 0.053408846 0.027523465 -0.008488685 -0.04331847 0.07084891 0.070822306 0.06521159
-0.0007648492 -0.020721706 -0.040009584 0.044522237 0.037944794 -0.033142366 -0.005560086 -0.059584554
0.0018466767 -0.05557606 -0.06766332 0.0632511 -0.027269758 -0.023548208 -0.058512893 0.0583213
0.0648002 -0.016908905 -0.025691936 0.03335213 -0.061398532 -0.053694353 0.048517317 -0.053858776
-0.07205293 -0.0046949657 -0.038873002 0.027934741 0.028391024 -0.03637711 0.040030986 0.061695192
-0.04200587 0.030809365 -0.00968334 0.03522504 0.008318208 0.0676558 0.053425647 0.050436363
0.040700898 0.023655718 0.04422993 -0.034747366 0.033877544 0.024297424 0.06475284 -0.020899644
-0.020205693 -0.042349715 -0.008859323 0.031205723 0.0035235507 0.045769442 -0.059875526 -0.05714795
00000000: cb2a 0ebd 660e 103d f984 3dbd b0ec f33c
00000010: 72c3 503d 3f39 8f3c 28f7 923c 3538 ddbc
00000020: 2407 25bd 0d55 db3c 9ad9 fb3c a0f5 47bd
00000030: 5bc4 cb3c 5416 273d 48c7 cfbb 0ef0 77bc
00000040: 2009 563d 4dec 82bd d0bd 873c 572d 953c
00000050: fba7 ebbb 667c 92bd 5c14 ff3c 3fa8 babc
00000060: ba7e 823c 7288 0ebd 227c 76bd d552 853b
00000070: 3494 a0bc a4ef 69ba 9ea5 79bd 9c91 8ebc
00000080: 124c 2e3c ab34 8a3d 37d6 403d c2a6 623d
00000090: 7872 fd3b 1847 88bb 436e 273d d566 2d3d
000000a0: 9173 52bd 3438 333d 61c5 703c 5f72 513d
000000b0: 697e 15bd 4d3f 1c3c 7112 853d 5d3a 12bb
000000c0: dd98 643d 349c 373a 94e2 103d 2e6b 6b3d
000000d0: 57e9 99bc 812d 52bd 72f9 4b3d a562 33bd
000000e0: 5dd7 acbb 9cd2 3d3d 8bf1 33bd ad4e 023d
000000f0: dddb 913d 3089 10bd b940 f5ba 7771 12bd
00000100: a6cd 8cbd 39d4 cdbc 6f86 3d3d 54f4 23bc
00000110: 2edf c53c c97f 7fbd eed7 8dbd 4d47 8ebd
00000120: 28b0 25bd 6a38 8fbd 96a7 c03a 5c81 e7bc
00000130: 39bf 963c bb6c d93c 6618 52bd a5ce 573d
00000140: cd93 2dbb de80 35bb 63df 503d b9b6 91bd
00000150: 2310 7dbd c40c 8f3d 5c11 fd39 90ea 603b
00000160: cb8d 3fbd 4b1e 5c3a a394 823d 3baa 88bd
00000170: 4709 ea3a df95 113d 9fd5 2c3c be7d f0bc
00000180: 6313 fcbb 97d4 873d c867 6d3d 75b2 37bd
00000190: 8a1f 353d 3626 883d 3c76 da3c a883 31bd
000001a0: b3ba 403d f322 d2bb 90dc 57bc 35a3 0239
000001b0: 7e94 223d 1153 113d f753 84bd ee41 5c3c
000001c0: 7bae 2c3c 63ac 2d3d 330d 91bd ebba 15bd
000001d0: 834c ae3c e999 23bd dbdb 5abd 15ff 84bc
000001e0: 422b 9d3c 6177 8f3c aa00 90bc 2458 413d
000001f0: 697e 813d 57bb 7f3d f9af 073d 1dd4 493d
00000200: 48e4 783c 5673 f6bc 44f7 b5bb aa5e 12bd
00000210: 9db0 0bbc 82d3 91bd 1230 bdbc d5ac 75bb
00000220: 832d 89bb b56f 3bbd 154a 603d 2cdf 6a3d
00000230: 714b 5fbd 22de 2d3d 4411 443d 87f0 893c
00000240: 4f23 7fbc 457c 81bd 6362 6a3d c437 debc
00000250: fe52 ec3c 178b 08bd d8d0 3f3c 2f13 3cbd
00000260: 6b0b 88bc 4123 5dbd e834 423d f287 2f3d
00000270: 438a 4c3a 53f8 24bd e311 6a3b 2f7f 60bd
00000280: 92f6 19bc 371b 6dbd 4425 353d 464f bfbc
00000290: dc44 82bd cc9a 03bd 1f21 16bd cdeb 9a3c
000002a0: 112e 883d b7cf 82bd 3252 d83c e939 a73b
000002b0: 172a 2fbc 7ced 3bbd 0acf 17bd 3c33 89bd
000002c0: 0d03 40bd 0f52 213c 2de8 12bc d882 34bd
000002d0: 5c9b 6b3d bf05 b6bb 3889 133d ea4d edbb
000002e0: 0435 7cbd e787 a63c 5cc1 aebb 8671 abbc
000002f0: 41a5 1fbd bdd2 69bd 9518 5f3d bed6 333d
00000300: 348e a13c 3cc3 5a3d e478 e13c 2014 0bbc
00000310: b56e 31bd 3c19 913d 490b 913d a78d 853d
00000320: 2980 48ba 91c0 a9bc 17e1 23bd f35c 363d
00000330: 006c 1b3d 4ac0 07bd 6231 b6bb ef0e 74bd
00000340: 300c f23a b9a3 63bd 1193 8abd cb89 813d
00000350: d464 dfbc 2ce8 c0bc 37ab 6fbd 51e2 6e3d
00000360: f8b5 843d 8b84 8abc e577 d2bc 3e9c 083d
00000370: 077d 7bbd 9cee 5bbd 18ba 463d 059b 5cbd
00000380: 7d90 93bd 3ad8 99bb 4c39 1fbd 66d7 e43c
00000390: 4b94 e83c 2a00 15bd 88f7 233d 19b4 7c3d
000003a0: 590e 2cbd ec63 fc3c dfa6 1ebc 2248 103d
000003b0: 1849 083c 208f 8a3d dad4 5a3d 5c96 4e3d
000003c0: fcb5 263d a3c9 c13c 712a 353d 4153 0ebd
000003d0: 2ec3 0a3d 640b c73c 239d 843d bb35 abbc
000003e0: 6986 a5bc e576 2dbd b226 11bc 25a3 ff3c
000003f0: 5feb 663b bd78 3b3d 0a40 75bd f813 6abd

module.t_patch_modules.1.t_patch_net.0.bias f4 [32]
-0.06979045 -0.07228402 -0.016488811 -0.019028302 -0.000841096 0.059839755 0.048589498 0.056095146
0.014428159 0.07129461 -0.02223151 0.045969903 -0.040609695 -0.009981896 0.060771216 -0.055576254
0.021344159 -0.029230522 -0.029695325 0.022451235 0.011560799 -0.060387712 0.017043969 0.04389971
-0.018139325 -0.021604398 0.03454809 -0.007337946 -0.004824132 0.069650024 -0.045005966 -0.043068584
00000000: 4cee 8ebd a509 94bd 8b13 87bc 3ee1 9bbc
00000010: ff7c 5cba 881a 753d c805 473d 06c4 653d
00000020: 1664 6c3c e902 923d db1e b6bc f04a 3c3d
00000030: 5a56 26bd 1b8b 23bc 3deb 783d eda3 63bd
00000040: f2d9 ae3c d974 efbc 9c43 f3bc a7eb b73c
00000050: 8169 3d3c 1b59 77bd cb9f 8b3c 2fd0 333d
00000060: ec98 94bc b5fb b0bc 4c82 0d3d 2773 f0bb
00000070: c113 9ebb aca4 8e3d 2d58 38bd af68 30bd

module.t_patch_modules.1.t_patch_net.2.weight f4 [10]
1.0001856 0.9993152 1.0003839 1.0004848 1.0002506 1.0013086 1.0010873 1.0005509
0.9997172 1.000094
00000000: 1506 803f 1fd3 7f3f 940c 803f e30f 803f
00000010: 3608 803f e12a 803f a123 803f 0d12 803f
00000020: 77ed 7f3f 1503 803f

module.t_patch_modules.1.t_patch_net.2.bias f4 [10]
0.0004662991 0.00021454695 -0.0011149433 -0.00041522438 0.001002153 -0.0005442733 0.00024420331 -9.220621e-05
0.0019142381 0.001471268
00000000: 9b79 f439 02f8 6039 4a23 92ba 79b2 d9b9
00000010: ad5a 833a 90ad 0eba 6a08 8039 d55e c1b8
00000020: 2ce7 fa3a 90d7 c03a

module.t_patch_modules.1.t_patch_net.2.running_mean f4 [10]
0.25679198 0.25942713 0.24939097 0.24235609 0.24469684 0.252676 0.2497304 0.25769913
0.25895938 0.26382074
00000000: 3d7a 833e a2d3 843e 5960 7f3e 322c 783e
00000010: cf91 7a3e c05e 813e 53b9 7f3e 24f1 833e
00000020: 5396 843e 8313 873e

module.t_patch_modules.1.t_patch_net.2.running_var f4 [10]
0.1360579 0.13774636 0.12985219 0.12538186 0.1272667 0.13448258 0.13468097 0.13730437
0.13781196 0.1403549
00000000: c352 0b3e 620d 0d3e f9f7 043e 1a64 003e
00000010: 3452 023e cdb5 093e cfe9 093e 8499 0c3e
00000020: 941e 0d3e 32b9 0f3e

module.t_patch_modules.1.t_patch_net.3.weight f4 [32, 32]
0.16307527 -0.075201556 -0.16013585 -0.076848775 -0.1535132 0.051913634 -0.14014135 -0.0022550046
-0.14782532 0.10729826 0.079214156 0.08185112 -0.16428895 0.17600857 -0.061417602 0.04510469
-0.0438851 0.044378184 0.15619273 -0.08770602 -0.025506223 -0.039625645 -0.14733864 0.17051859
0.014866236 0.030865425 -0.16197188 0.030946784 -0.024427552 -0.101992264 0.00040709323 -0.019762566
-0.1286262 -0.014935551 0.08470876 0.013790122 0.17449147 -0.024725083 -0.066863224 -0.058342293
0.10338775 0.14910963 -0.17724903 -0.1024436 0.0019561828 0.06302891 -0.16616017 -0.05183066
-0.1663126 0.045173164 -0.04051387 -0.09515067 -0.14102831 0.06795981 0.16599017 -0.032861333
0.074780755 -0.12835439 0.15213738 0.15830433 0.085988045 -0.16684814 -0.10662691 0.16355743
0.1091094 0.1554913 -0.10093634 -0.02557053 -0.08196106 0.16177574 -0.14568624 0.12819834
0.12193818 -0.08767502 -0.0032988384 0.06761159 -0.044020582 0.10469296 -0.100563616 -0.0017344315
0.1496362 -0.07713777 0.16948204 -0.004520705 0.14215572 -0.03208523 -0.06102611 0.07858382
0.086097196 0.13359784 0.1344715 0.08029983 -0.0390743 -0.039834842 0.15172167 -0.16555311
-0.14442205 -0.0067881704 0.029534727 0.09389 -0.15005676 0.12437963 0.15926121 -0.05988008
-0.16290632 0.09241999 0.004491104 -0.018198611 0.051116157 -0.021210156 0.14033869 0.083633214
-0.022699773 -0.042661242 -0.11422108 -0.075461455 0.031620894 -0.17454605 -0.049461547 -0.07261755
-0.09896215 0.1013026 -0.0325552 0.1401105 -0.1347439 0.065989345 0.0978098 -0.0131727075
-0.14016926 0.009889363 -0.061620757 -0.14604405 -0.1598649 -0.10432512 -0.15011384 -0.057396144
-0.022979572 -0.026925007 0.17708488 -0.08356304 -0.022061042 0.15573226 0.07936952 0.10248061
-0.08178134 0.09939889 0.027097853 0.07066448 -0.059583258 -0.09364211 -0.13472436 -0.06769983
0.11181357 0.14383572 0.16189061 0.058874868 -0.0053133457 -0.053786997 0.011721855 0.05150983
0.16318119 -0.11379114 0.04747208 0.022645751 -0.17353263 -0.0055142017 -0.02331042 0.06807982
0.08774034 0.04942196 -0.11387894 0.05457405 -0.018356318 -0.06268519 0.13480881 0.07837104
-0.05020982 -0.052695476 0.036817696 0.057504214 -0.14996877 0.12446136 -0.031965934 -0.08953103
-0.1675961 0.07242889 0.004795041 0.061116353 -0.0058901757 -0.011465416 -0.036781546 -0.013839855
0.104689 -0.065488 0.10925613 -0.16781323 -0.15396273 -0.099882185 0.026713949 -0.15325263
0.021277087 0.016600663 0.07435917 0.16799621 0.00037369216 0.087546244 -0.1157225 -0.16078341
-0.10882572 0.16579224 0.14976291 -0.1545387 0.025061326 0.036121868 0.04031779 0.0156128425
0.094332956 -0.10277912 -0.038146827 -0.08896436 0.09109959 -0.075907156 0.025884636 0.16142015
0.034671105 -0.16861427 0.08637401 0.086469375 0.03592533 -0.048711922 0.03500938 0.11058802
-0.09927794 -0.094338454 0.0065979026 0.04802797 0.15802789 -0.12806037 -0.07104114 0.13817418
0.15173712 0.10297692 -0.069072664 -0.031330734 0.16592437 -0.0395745 0.036874127 -0.075125925
-0.014524833 -0.13802002 -0.17237365 -0.14268588 -0.17477006 0.021734966 0.015815789 -0.008157781
00000000: 34fd 263e 4603 9abd a7fa 23be e462 9dbd
00000010: 9032 1dbe 64a3 543d 3781 0fbe b3c8 13bb
00000020: 855f 17be 31bf db3d 083b a23d 8fa1 a73d
00000030: 5d3b 28be 973b 343e 0691 7bbd b2bf 383d
00000040: ddc0 33bd e6c5 353d fdf0 1f3e 379f b3bd
00000050: 6df2 d0bc 804e 22bd f1df 16be 6d9c 2e3e
00000060: 8391 733c 7dd9 fc3c f5db 25be 1c84 fd3c
00000070: 4a1c c8bc 52e1 d0bd 216f d539 1be5 a1bc
00000080: 96b6 03be 3eb4 74bc c97b ad3d f7ef 613c
00000090: e4ad 323e 428c cabc 96ef 88bd 54f8 6ebd
000000a0: f5bc d33d 32b0 183e c580 35be f3cd d1bd
000000b0: 4d33 003b 4d15 813d e425 2abe 634c 54bd
000000c0: da4d 2abe 7f07 393d dff1 25bd 5bde c2bd
000000d0: ba69 10be 832e 8b3d 54f9 293e 9b99 06bd
000000e0: a726 993d 556f 03be e7c9 1b3e 881a 223e
000000f0: 801a b03d 3dda 2abe 365f dabd 997b 273e
00000100: c074 df3d 1d39 1f3e b6b7 cebd 4a79 d1bc
00000110: 33db a7bd 8aa8 253e c62e 15be 6d46 033e
00000120: b9ba f93d f68e b3bd 5331 58bb f277 8a3d
00000130: ed4e 34bd 4369 d63d 4cf4 cdbd dd55 e3ba
00000140: 3b3a 193e 68fa 9dbd b38c 2d3e 6c22 94bb
00000150: 4591 113e cd6b 03bd 84f6 79bd 8ef0 a03d
00000160: ba53 b03d dfcd 083e e6b2 093e 3d74 a43d
00000170: 600c 20bd dc29 23bd ed5c 1b3e c186 29be
00000180: 60e3 13be 4d6f debb d0f2 f13c 6649 c03d
00000190: 7ba8 19be bfba fe3d 5f15 233e d144 75bd
000001a0: ead0 26be b146 bd3d 1c2a 933b 4115 95bc
000001b0: 2d5f 513d ecc0 adbc f2b4 0f3e e447 ab3d
000001c0: e0f4 b9bc 8ebd 2ebd beec e9bd 898b 9abd
000001d0: e984 013d 33bc 32be 3198 4abd 83b8 94bd
000001e0: abac cabd bd77 cf3d 9a58 05bd 2079 0f3e
000001f0: 4efa 09be 6c25 873d 8150 c83d 57d2 57bc
00000200: 8888 0fbe ff06 223c 0c66 7cbd 928c 15be
00000210: a0b3 23be 69a8 d5bd 71b7 19be 3818 6bbd
00000220: a83f bcbc d591 dcbc bd55 353e 1923 abbd
00000230: 5cb9 b4bc 4778 1f3e 7d8c a23d 5be1 d13d
00000240: fa7c a7bd a591 cb3d 51fc dd3c 8ab8 903d
00000250: 930d 74bd 6fc7 bfbd 2ff5 09be 35a6 8abd
00000260: 83fe e43d ac49 133e a7c6 253e c626 713d
00000270: 931b aebb c14f 5cbd 060d 403c f9fb 523d
00000280: f818 273e 540b e9bd 1572 423d 9583 b93c
00000290: 8ab2 31be 7ab0 b4bb 7ef5 bebc 6f6d 8b3d
000002a0: 35b1 b33d ae6e 4a3d 5d39 e9bd 0a89 5f3d
000002b0: fd5f 96bc 1861 80bd 520b 0a3e ff80 a03d
000002c0: d0a8 4dbd 36d7 57bd 27ce 163d 8a89 6b3d
000002d0: 6a91 19be 99e5 fe3d b6ee 02bd 0b5c b7bd
000002e0: 509e 2bbe 9955 943d b81f 9d3b 2455 7a3d
000002f0: 6002 c1bb 71d9 3bbc 3fa8 16bd 8fc0 62bc
00000300: 3067 d63d 931e 86bd aec1 df3d 3bd7 2bbe
00000310: 68a8 1dbe 088f ccbd 36d7 da3c 42ee 1cbe
00000320: 494d ae3c 1dfe 873c 9f49 983d 3307 2c3e
00000330: 1dec c339 724b b33d ebff ecbd 68a4 24be
00000340: 05e0 debd 71c5 293e 735b 193e 653f 1ebe
00000350: 694d cd3c 86f4 133d 4424 253d 02cd 7f3c
00000360: a331 c13d dc7d d2bd d93f 1cbd f232 b6bd
00000370: 6c92 ba3d 3675 9bbd 040c d43c 534b 253e
00000380: 4a03 0e3d 38a9 2cbe dbe4 b03d db16 b13d
00000390: 7026 133d 2786 47bd ff65 0f3d f97b e23d
000003a0: 3c52 cbbd 8534 c1bd 3833 d83b fab8 443d
000003b0: 10d2 213e 4222 03be 047e 91bd 887d 0d3e
000003c0: fa60 1b3e 90e5 d23d f875 8dbd a854 00bd
000003d0: 14e8 293e df18 22bd 5309 173d 9fdb 99bd
000003e0: 91f9 6dbc 1f55 0dbe b882 30be 3f1c 12be
000003f0: ecf6 32be 870d b23c 1d90 813c 37a8 05bc

module.t_patch_modules.1.t_patch_net.3.bias f4 [32]
-0.122449756 -0.02400449 0.1655247 -0.10996478 0.0014075447 -0.07413959 0.052860625 -0.17031871
-0.1412927 -0.009167174 -0.10917394 0.09318844 0.046791475 -0.042599477 0.16521277 -0.016188217
-0.12395477 -0.04001865 -0.06253428 -0.024641458 0.13232139 0.12641454 -0.12869428 0.06516332
-0.1721612 0.13485286 -0.059428006 0.1469528 0.07631051 0.109163664 -0.077265784 0.11661406
00000000: f0c6 fabd 10a5 c4bc 4f7f 293e 3735 e1bd
00000010: 5d7d b83a 7fd6 97bd 6284 583d 0768 2ebe
00000020: 09af 10be ea31 16bc 9696 dfbd 95d9 be3d
00000030: 6ba8 3f3d ca7c 2ebd 892d 293e 279d 84bc
00000040: 00dc fdbd 99ea 23bd f911 80bd e2dc c9bc
00000050: 427f 073e d072 013e 6fc8 03be 5974 853d
00000060: 074b 30be de16 0a3e c86a 73bd cb7a 163e
00000070: af48 9c3d 3391 df3d 863d 9ebd 5ad3 ee3d

module.t_patch_modules.1.t_patch_net.5.weight f4 [10]
1.0011482 0.9995726 1.0004659 1.0005292 0.999768 0.99896955 0.999401 1.0010577
1.0007473 0.99818385
00000000: a025 803f fde3 7f3f 440f 803f 5711 803f
00000010: ccf0 7f3f 78bc 7f3f bed8 7f3f a922 803f
00000020: 7d18 803f fa88 7f3f

module.t_patch_modules.1.t_patch_net.5.bias f4 [10]
0.0003190352 0.0004637472 0.00086853513 0.0001425408 -0.0005932848 -0.00067892525 0.0005903855 0.0008440655
0.00020142598 -0.0008329588
00000000: 2e44 a739 1823 f339 68ae 633a 0177 1539
00000010: ab86 1bba e7f9 31ba 1ac4 1a3a 4744 5d3a
00000020: e035 5339 eb5a 5aba

module.t_patch_modules.1.t_patch_net.5.running_mean f4 [10]
0.23030482 0.23008886 0.22768499 0.22728463 0.22796535 0.22986135 0.22914875 0.22993618
0.22925137 0.22904076
00000000: 07d5 6b3e 6a9c 6b3e 4126 693e 4dbd 683e
00000010: c06f 693e c660 6b3e f8a5 6a3e 6474 6b3e
00000020: dfc0 6a3e a989 6a3e

module.t_patch_modules.1.t_patch_net.5.running_var f4 [10]
0.12547821 0.12605846 0.122150585 0.12219165 0.12348732 0.124656364 0.12242197 0.12450322
0.12433655 0.12515153
00000000: 5c7d 003e 7815 013e 162a fa3d 9e3f fa3d
00000010: ece6 fc3d d64b ff3d 5fb8 fa3d 8bfb fe3d
00000020: 29a4 fe3d b927 003e
